AutogluonModels/ag-20240310_234434/models/NeuralNetFastAI_r156_BAG_L1/S1F1model-internals.pkl (torch, 174197 bytes, 11 tensors)

weight f4 [75]
00000000: efdc 803f bf34 7e3f bc39 7e3f 68c0 7b3f
00000010: 11fd 833f 6c8e 833f 5ad4 843f e109 813f
00000020: 314c 813f e063 833f 4a26 853f 8008 7c3f
00000030: ffb9 823f 803a 7c3f bbf2 843f a9ad 7b3f
00000040: 6cba 763f 1e2b 813f c106 7c3f e3f2 813f
00000050: 95c2 803f da60 813f f50b 793f 18f6 7f3f
00000060: a03c 803f 44ad 803f 377c 7c3f 5758 803f
00000070: c2ce 7d3f 5f1c 7b3f 35b3 7b3f b9fb 7b3f
00000080: 854b 7d3f 640d 803f 665a 7c3f 465e 833f
00000090: a1c0 813f de3a 803f d556 7f3f b0e8 7f3f
000000a0: 84b1 813f 8794 7e3f 6f5d 7e3f 30cb 793f
000000b0: 7db2 7b3f d384 813f 9679 843f adbe 7c3f
000000c0: 48d3 7d3f 678b 833f 5992 843f 0a64 823f
000000d0: 467a 7a3f cb6b 823f 3eb5 7d3f 4af1 733f
000000e0: ed56 843f 8d7b 803f 6481 803f 1c84 813f
000000f0: 47c9 833f fdc1 7e3f 24e8 7c3f 6ecc 813f
00000100: e52c 7e3f ed50 813f 631f 793f 5c04 833f
00000110: 88fb 7f3f 3316 813f 7767 813f 633b 803f
00000120: 70a9 733f e4a5 803f b8bb 7e3f
1.0067424 0.99299234 0.99306846 0.98340464 1.0311605 1.0277839 1.0377305 1.008114
1.0101377 1.0264854 1.040231 0.9845047 1.0213012 0.98526764 1.0386575 0.9831186
0.9637821 1.0091283 0.98447806 1.0152248 1.0059382 1.0107682 0.9728387 0.99984884
1.0018501 1.0052876 0.98627037 1.0026959 0.9914361 0.98090166 0.98320323 0.98430973
0.9894336 1.0004086 0.9857544 1.0263145 1.0136911 1.0017965 0.9974187 0.9996443
1.0132298 0.99445385 0.9936132 0.97575665 0.98319227 1.011866 1.0349605 0.9872845
0.99150515 1.0276917 1.0357162 1.018678 0.97842824 1.0189146 0.9910468 0.9529005
1.0339028 1.0037705 1.0039487 1.0118442 1.02958 0.9951475 0.9879172 1.0140512
0.99287254 1.0102822 0.9731352 1.0235705 0.9999318 1.00849 1.01097 1.0018123
0.95180416 1.0050626 0.99505186

bias f4 [75]
00000000: 251d 803c 9069 ac3c 6bd4 b4bc ea65 063d
00000010: 72d7 e83c 814e 093b 6edf 0d3d 7322 01bc
00000020: c734 47bb 76d6 05bd 166d 1bbc d79a 61bc
00000030: ec20 70bd c6d8 4abc 3bc2 29bc 0077 fd3c
00000040: feb2 34bb 7793 ac3c 8718 0cbd ae9e 44bc
00000050: abec 223d 2084 47b8 0434 003b bce1 99bc
00000060: 93b8 0cbc e480 893b fc05 5abb 7b60 7abc
00000070: 9070 173c df8a 913c 864e 6a3b 3197 f93c
00000080: eb5a adbc f5fa e8bc 1b4e e93c 9b6c 0f3d
00000090: 8e1f 11bd 8d1a 0d3c 3067 c13c a2dc 913c
000000a0: fdc3 633b 5c60 72bc 65be fa3c 232a ab3c
000000b0: 57eb a8bc 2e41 69ba bb78 a23c 72d8 b83c
000000c0: 9fb2 f2ba b839 88ba 6394 9a3c 1741 76bc
000000d0: e10b 953c 0451 89bc c51c f93a c65e 30bd
000000e0: d49f 06bd ffa0 43bd 55f1 98bb 4f9a 183d
000000f0: cc2d 04bd bcfa 483c 84b5 3ebb 432a c23c
00000100: 2f44 77bc 0fc6 613c 3303 26bc 145e 013d
00000110: e8ce db3a 77cb d1bc 9388 843c 10bd c3bc
00000120: 17a4 cd3c ab09 323d 6963 7dbc
0.015638897 0.02104643 -0.022073945 0.032812037 0.028423045 0.0020951333 0.034636907 -0.0078817485
-0.0030396448 -0.03267523 -0.009486457 -0.013769827 -0.058625147 -0.012380784 -0.01036125 0.030940533
-0.0027572508 0.02106641 -0.03420308 -0.012000723 0.039776485 -4.756835e-05 0.0019562254 -0.018784396
-0.008588928 0.004196273 -0.0033267727 -0.015281792 0.009243146 0.017766414 0.003575237 0.030467601
-0.021161517 -0.028439978 0.028479626 0.035015684 -0.035430484 0.008612287 0.023608774 0.017805401
0.003475427 -0.014793482 0.030608365 0.020894116 -0.020620031 -0.0008897957 0.01983296 0.022564147
-0.0018516368 -0.0010393178 0.018869584 -0.015030167 0.01819414 -0.016762264 0.0019005766 -0.043059133
-0.032867268 -0.04776096 -0.004667441 0.037256535 -0.032270238 0.012266811 -0.002909989 0.023701793
-0.01509194 0.013780131 -0.010132599 0.03158386 0.0016770037 -0.025609715 0.016178405 -0.023893863
0.025102658 0.04346625 -0.015465596

running_mean f4 [75]
00000000: 688d b6b9 d6b2 ffba f13d 83ba be3b ddb9
00000010: c662 a0ba 1629 3c3b 44d8 f5ba 02ea 083b
00000020: 94dd 313b aa9f 5b3b 541a 25bb 787e 9db9
00000030: 661f 00ba e5ec 03bb abdb 4e3b d0ed 9b3a
00000040: d811 2bbb 9cbe c93a ac08 d8ba 11ec 373b
00000050: 9cc6 97ba 10ed 033b a47b c3ba cef6 cf39
00000060: c270 a43a f102 6c39 a84c 733a 156d 5fbb
00000070: 1aa5 1137 676e 643a 1639 623b e57b f73a
00000080: 4d8d 813a 27c0 f2ba bffc abba 5e28 4aba
00000090: 0320 87ba 96d5 b6b7 ff34 90b9 0b9d 4339
000000a0: 2885 69ba 15f2 aeba ad64 00ba 66eb 0cbb
000000b0: 63c2 ce3a b89b 033b 2cc1 203a 8ecd 71b9
000000c0: 9d4e 80ba 5980 8b39 41ec 653b 6828 de39
000000d0: fb4f 513a a5d6 103b 8b2d 1c3b 7f60 19bb
000000e0: a3ac e4ba 20ea 88b9 5d3f 31bb 58a9 48ba
000000f0: 4347 243b f708 6cba f154 b63a 681f d03a
00000100: e870 d23a 4d82 a1b6 d3ad a2b9 aba0 523b
00000110: 9e36 58bb 88fc 43bb 7e57 44bb 0bdc 7dbb
00000120: 6dcf 87ba 3b58 e4ba ec92 08bb
-0.000348191 -0.0019508253 -0.0010012967 -0.00042196916 -0.0012236468 0.0028711013 -0.0018756469 0.0020891433
0.0027140127 0.0033511915 -0.0025192695 -0.000300396 -0.0004887491 -0.0020130214 0.0031564038 0.0011896435
-0.0026103165 0.0015391889 -0.0016482077 0.002806429 -0.0011579576 0.0020130314 -0.0014914167 0.00039666
0.0012545811 0.0002250781 0.0009281137 -0.0034092118 8.681114e-06 0.0008713961 0.003451889 0.0018881528
0.000988403 -0.0018520401 -0.0013121589 -0.00077117037 -0.0010309223 -2.179555e-05 -0.00027505305 0.00018655152
-0.00089080865 -0.0013347293 -0.00048978144 -0.0021502613 0.0015774484 0.002008183 0.00061323005 -0.00023060126
-0.0009789054 0.00026607772 0.0035083445 0.00042373245 0.00079846353 0.0022100594 0.0023830857 -0.0023403463
-0.0017446469 -0.00026114378 -0.0027045824 -0.0007654629 0.002506689 -0.00090040214 0.0013910813 0.00158785
0.0016055377 -4.813343e-06 -0.00031028557 0.0032139223 -0.0032991539 -0.002990516 -0.0029959376 -0.0038735892
-0.00103615 -0.0017421314 -0.0020839525

running_var f4 [75]
00000000: 0b1a 803f e631 7e3f fd6a 7f3f 5d0a 803f
00000010: 5b5d 7f3f 5c02 7f3f a04f 7f3f 6430 803f
00000020: ba11 7f3f a064 803f c74d 7f3f ddcc 7f3f
00000030: 6fbf 7f3f ffc7 7f3f ecf7 833f e7de 7f3f
00000040: ea63 7f3f 6068 803f b162 7f3f 2231 803f
00000050: 6686 7f3f 5f46 803f 222c 7f3f ff7f 7f3f
00000060: 367f 7f3f d014 7e3f 5110 7e3f 74de 7c3f
00000070: ccef 7d3f daa0 7f3f 1c90 7d3f 4a0a 803f
00000080: 6d80 7f3f 27a0 7f3f 4a04 7f3f 1270 7f3f
00000090: 2345 7f3f e184 7f3f 3f0c 803f c463 803f
000000a0: db60 7f3f 3d24 803f bed4 7f3f 045a 803f
000000b0: 47ae 7f3f bcd4 7f3f 5145 803f fd9d 7f3f
000000c0: 3db3 803f e18c 7f3f 6cdb 873f 1052 6a3f
000000d0: c92f 7f3f ab0d 803f d4d2 7f3f 608e 7f3f
000000e0: 0189 7a3f 7646 7f3f 374f 7f3f bd94 7f3f
000000f0: 97f5 813f f7c8 7f3f f4be 7f3f be5c 803f
00000100: 48e4 7f3f 842f 803f 7d00 803f bb8f 7f3f
00000110: ffab 7c3f 3936 803f d7d7 7f3f ca45 7f3f
00000120: 630d 803f a18c 7e3f 58de 7d3f
1.0007948 0.9929489 0.99772626 1.0003163 0.99751824 0.99612975 0.99730873 1.0014768
0.99636424 1.0030708 0.99728054 0.9992197 0.9990148 0.99914545 1.0310035 0.99949497
0.9976183 1.0031853 0.99759966 1.0014994 0.9981445 1.0021476 0.99676716 0.9980468
0.99803483 0.9925051 0.99243647 0.98776937 0.99194026 0.99854815 0.9904802 1.000314
0.9980534 0.9985375 0.9961592 0.9978038 0.9971487 0.9981213 1.0003737 1.0030446
0.99757165 1.0011059 0.99933994 1.002747 0.998753 0.9993398 1.0021154 0.99850446
1.0054699 0.9982434 1.0613837 0.9153147 0.9968229 1.0004171 0.99931073 0.9982662
0.978653 0.9971689 0.9973025 0.9983633 1.0153073 0.99916023 0.99900746 1.0028303
0.99957705 1.0014501 1.0000149 0.9982869 0.98699945 1.0016547 0.9993872 0.99715865
1.0004085 0.9943333 0.99167395

weight f4 [400, 75]
00000000: a4c2 9a3b db31 783d 0bd5 bcbd 48a5 a1bd
00000010: 4768 44bd 6b8d db3c d691 443c 1f37 cf3d
00000020: ed1d 453c 45b8 773d 74ca 34bd 825c 92bb
00000030: a494 d6bd c70d 89bd c466 21bd c54a 28bb
00000040: 6095 4d3d 116e 933d 1a56 9ebd f676 80bd
00000050: 7c77 343d e622 f63d fbc6 b9bc 0b8f a93d
00000060: 10b8 18bc 2073 5cbc 7a32 ba3d 72bf d9bd
00000070: b385 82bd 92ec bfbc c7b3 02bd 5195 e23d
00000080: 4686 a3bd 9d84 36bd 44fe 7dbd 716f bdbd
00000090: 2947 b1bd d72c c23d 0297 7f3d 8df6 803d
000000a0: 1483 823c 24ac 2ebd c266 e6bb da55 dfbd
000000b0: d905 c7bd 783c 30bd 2876 9d3d 4a71 943d
000000c0: 54d3 3bbd 5c7a 013c fd00 ae3d bda1 0c3e
000000d0: 2592 173d 1dab 2c3c 1e51 893d b61f a5bd
000000e0: 61ac 003d f8ee b2bd 44f5 c2bd 3ffd 47bd
000000f0: f3ce 993d adf8 7c3d 67c5 8dbd 8616 c33c
00000100: 3089 313d 94b2 aa3b a696 8e3b 9527 b93c
00000110: c7a8 903d fdd8 e33d 8727 c5bd 8fc3 43bd
00000120: 02de 4d3d 3422 d23d c83a d33d 148d 783d
00000130: 0251 ed3c f604 b7bd 7a3e f13c c30b f0bd
00000140: aa4f ebbd bef5 b23d a74f a63d bf69 03be
00000150: 55c1 3d3d 5c06 00bd 2669 fdbc 94b1 dfbc
00000160: 0c0a 8b3d 5bd5 93bd 0962 0d3d 08bb 8b3d
00000170: 9a6e 8a3d d557 2e3d c242 00be ee63 d3bd
00000180: 6b9f 853d e87f 883c 7a1c d6bd 8e55 8dbd
00000190: 89ac be3d 631d c73d 368c 23bd c704 19bd
000001a0: d785 f2bd 6155 46bc c72d bfbd 2ff2 b5bd
000001b0: 6e89 8fbc aea5 20bc dd2c 70bd f0f6 c53d
000001c0: fcb0 a5bd 1403 c43d 89b3 593d f9d6 cbbd
000001d0: ed4a 36bd 0b2c e63c ba93 a9bc 656d 173d
000001e0: 1473 273d 03b6 c03c 146e 90bd 8783 513d
000001f0: a1e4 f5bd e132 d9bd ea64 11bd 1957 54bd
00000200: 28b4 01bd ef8e aebd 4e43 52bd ad99 e23c
00000210: 7a89 9cbd d93f bebc 51b0 8a3d 26cc d1bc
00000220: 960d 12bc 4fb2 19bc 8b2c e63c 3e0f ae3d
00000230: dbc6 b43d 3b67 723d 526c ad3d 0c51 11bc
00000240: 034a d0bd 1c9f 2ebd faaf a33d 60a0 efbb
00000250: 6d5b d3bd 1804 08be 8ecf dabd a963 d3bd
00000260: 99ce 02bd 0141 903d b933 8d3d b8c3 e0bd
00000270: 5015 8c3d 997d 9fbd 2aef a3bc 5a37 87bd
00000280: c9b4 f4bc 7172 5dbd 3b85 b2bd 5711 b8bd
00000290: 5adf 86bc 2d9a 27bc a64b 29bd f5a6 2e3d
000002a0: 03f7 d5bd 9e14 f1bb e736 cb3d d826 79bd
000002b0: 1331 bf3d 6648 103d 6a1c ccbd 18d0 a23d
000002c0: b2f0 3bbc 55ad 4cbd 16cb c03d a940 b8bd
000002d0: ed9d 003c 3fb1 03bd 85e9 8d3d 6e8d 063d
000002e0: c6fb 803d 3fe1 cc3c 47d3 07bd 2c4b f5bc
000002f0: d931 ddbd 2bd5 7c3d ea9c bf3d 46f8 943d
00000300: ed43 c6bd f8ae 8738 ff28 96bd 2b71 54bd
00000310: 24f5 fdbc 8f43 263d 64e4 94bd a209 b3bb
00000320: 01c2 17bc 1814 923d 3362 f2bd c2f4 d7bd
00000330: d138 c1bd ff73 983d 155c 8dbd a7aa bb3d
00000340: 9edf 353d 3b96 a63b 3fb1 43bd 75f1 11bd
00000350: c906 7bbc 0cb7 30bd 3769 ffbc c6cf 363d
00000360: f229 a9bd e66d 09bd 9e79 b63d 6955 debd
00000370: 8679 7abb 6604 ef3d f1c1 1c3d 041f 973b
00000380: bc32 d7bd 7d50 8e3d c361 99bd 0082 dcbc
00000390: 9e39 56bd 42c8 ccbc 79b1 8a3c 51be ae3d
000003a0: 8b6c 5c3c 8254 d63d 3da7 813d b11c 45bd
000003b0: 1008 4d3d d71a d4bd 5970 45bd 213f b93c
000003c0: 5cd0 933d 6c4f 9d3d a43c 24bd 2870 393b
000003d0: 64c2 573d 0a67 f0bd 212e b43d 143d bfbd
000003e0: 4edf 8bbb 3a53 00bc 0c56 78bd e2d4 283d
000003f0: a25f ce3d 7d61 d2bc 3f70 7cbd cff4 06bd
0.00472291 0.06059442 -0.09220322 -0.07892853 -0.04795101 0.026800832 0.011997661 0.101179354
0.012031061 0.060478467 -0.044138387 -0.004466594 -0.1047757 -0.06692081 -0.039404646 -0.0025679332
0.050191283 0.07198728 -0.07731266 -0.0627269 0.04405926 0.12018375 -0.02267789 0.082792364
-0.009321228 -0.013455182 0.09091659 -0.106322184 -0.06373157 -0.023428235 -0.03190973 0.11063636
-0.07984595 -0.044560064 -0.062010065 -0.092497714 -0.08656151 0.09481209 0.06239987 0.06297026
0.015931644 -0.042644635 -0.0070312927 -0.10905047 -0.09717912 -0.043026417 0.07688552 0.07248171
-0.045855835 0.007902708 0.08496282 0.13733573 0.03700461 0.010538843 0.06704925 -0.08062689
0.031414393 -0.08736986 -0.09519437 -0.0488255 0.075101756 0.061760593 -0.06922417 0.023814451
0.043343723 0.0052092765 0.004351455 0.022601882 0.07063442 0.111253716 -0.0962668 -0.04779392
0.05026055 0.1026043 0.10313946 0.060681418 0.028969292 -0.08936493 0.029448736 -0.11720993
-0.11489804 0.08738278 0.08120661 -0.12833308 0.046326954 -0.031256065 -0.030933928 -0.027306356
0.06789026 -0.07218429 0.03451732 0.06822783 0.06759377 0.042564232 -0.12525466 -0.103217945
0.06524547 0.016662553 -0.1045465 -0.06901084 0.09310252 0.09722402 -0.039928637 -0.03735807
-0.11841934 -0.012105317 -0.09334903 -0.088840835 -0.017521586 -0.009805126 -0.058636535 0.0966624
-0.08090398 0.095708996 0.053149734 -0.09953112 -0.04450505 0.028097173 -0.020700324 0.03696956
0.04088123 0.02352429 -0.07052246 0.051150825 -0.12006498 -0.106054075 -0.03549663 -0.051840875
-0.03166595 -0.08523356 -0.051333718 0.027661169 -0.07643409 -0.023223804 0.06771911 -0.02561004
-0.008914372 -0.009380891 0.028097412 0.08499001 0.08826991 0.05918048 0.08467926 -0.008869421
-0.101703666 -0.042632207 0.07992549 -0.0073128194 -0.103201725 -0.13282812 -0.10684119 -0.10321743
-0.031935308 0.070436485 0.06894631 -0.109748304 0.068400025 -0.07787628 -0.020011503 -0.06602354
-0.029871361 -0.054064218 -0.08716818 -0.08987682 -0.016463924 -0.010229629 -0.04133191 0.04263969
-0.10447504 -0.007357194 0.09922581 -0.06082806 0.09335532 0.035225295 -0.09966357 0.07949847
-0.01147096 -0.04996999 0.094137356 -0.08996708 0.007850152 -0.032151457 0.06929306 0.03284972
0.06298022 0.02500975 -0.033160474 -0.029943071 -0.10800523 0.06172673 0.09356101 0.07273917
-0.096809246 6.469892e-05 -0.07332038 -0.051865738 -0.031000681 0.040591773 -0.072701246 -0.005463795
-0.009262563 0.07132739 -0.11835136 -0.10544731 -0.09434665 0.074439995 -0.06902329 0.09163409
0.04440271 0.005083827 -0.047776457 -0.035630662 -0.015321442 -0.043143317 -0.0311781 0.044631742
-0.082599536 -0.033552073 0.089099154 -0.108561344 -0.0038219406 0.11670761 0.038270894 0.0046118516
-0.10507724 0.06948946 -0.0748935 -0.026917458 -0.05230104 -0.024997834 0.016930329 0.08532394
0.013453613 0.10465337 0.06330726 -0.048123065 0.050056517 -0.10356682 -0.048202846 0.02261311
0.07217476 0.07681164 -0.040096894 0.002829561 0.05267562 -0.11738403 0.08797861 -0.093378216
-0.0042685634 -0.007832343 -0.060628936 0.041218646 0.10076834 -0.025681252 -0.061630484 -0.03294831

weight f4 [400]
00000000: 936e 783f 1438 783f f6f0 773f 5d8f 7d3f
00000010: 72de 793f e0b4 7a3f 6989 7b3f 9b8b 793f
00000020: f2d3 753f 27f6 743f 5180 773f 87b3 7c3f
00000030: 90d1 7a3f dd51 7c3f 9ae0 793f 69d3 783f
00000040: a1b1 773f cd90 7b3f 38a5 7c3f d1ce 733f
00000050: 6731 7b3f 93c5 783f bf06 763f 935e 7d3f
00000060: c070 793f 3730 793f 8df2 793f 9367 793f
00000070: 325a 7d3f f7e0 793f fc91 793f 48fb 7a3f
00000080: 595d 7b3f 055d 793f c8e3 763f e635 763f
00000090: ae8e 783f a23a 783f 1dd2 773f ce7b 7a3f
000000a0: 4600 793f 88bb 7a3f ddf0 763f 8f0c 7d3f
000000b0: 1e06 743f f2e4 783f 297f 7a3f 3068 793f
000000c0: 5afb 783f 3139 7a3f ea43 793f ad66 7d3f
000000d0: 8240 773f 9173 783f b9d3 7a3f c33b 773f
000000e0: 5e69 783f 9784 793f bada 7a3f 05d3 7d3f
000000f0: bf5c 7c3f 68c2 733f 4824 783f 8299 7b3f
00000100: 58bf 773f 1fea 7b3f 14be 793f 40e5 773f
00000110: f600 7b3f 40cd 7d3f 0ccf 763f dfac 7c3f
00000120: 55f4 7a3f d165 783f af37 7b3f 532a 7d3f
00000130: 6248 793f b887 7c3f ea3e 773f 8dc1 753f
00000140: e1c7 7a3f 732a 793f 585b 7a3f edb4 7b3f
00000150: 563d 783f 205e 753f 2d44 753f 7583 7a3f
00000160: 1ffa 7f3f 68de 793f ce76 783f f6eb 783f
00000170: 7aef 783f c9a8 783f a330 7b3f edee 773f
00000180: 61aa 7c3f c7a7 793f ab06 7c3f 7326 7d3f
00000190: 4fae 763f e4b6 793f fa61 793f 3c5f 7b3f
000001a0: dcc9 793f 2178 7d3f 009f 773f 3cdb 783f
000001b0: 3012 783f 3e5f 7b3f 033d 763f 3ecb 7e3f
000001c0: adf5 783f 8149 7b3f d014 7c3f 6052 773f
000001d0: bc6e 783f 94cb 783f eca4 783f 5a34 783f
000001e0: 12f0 793f c18f 773f d5f0 7c3f 19c1 743f
000001f0: ccfe 763f f78a 773f f4a9 743f cb3a 7b3f
00000200: 4c10 7a3f 3aac 7a3f 797a 763f 9687 713f
00000210: c6a0 7a3f fdb1 763f 907a 7c3f cefd 783f
00000220: 1060 783f 5109 7e3f 988f 783f 0f7f 7a3f
00000230: d8a8 783f 60ea 763f 19ce 783f 56b8 783f
00000240: 09b7 7c3f 2e9d 783f c819 7b3f 0722 7c3f
00000250: cddd 783f 81a3 7c3f d1e9 7b3f 75dd 7b3f
00000260: 7deb 7a3f b418 783f 5349 773f 25f8 793f
00000270: eae7 763f 0927 7c3f 1a24 793f febb 763f
00000280: 618f 723f 426c 793f 386b 783f d92d 793f
00000290: 98e0 7c3f d799 7c3f 1bb3 7c3f 213a 773f
000002a0: 051d 793f e667 753f 8d10 7b3f a2ab 7a3f
000002b0: 20fa 763f 64c2 7d3f aa2e 7b3f 40f7 7a3f
000002c0: b307 7e3f 828b 793f 42c1 763f 97c1 743f
000002d0: aa5b 7a3f e780 7a3f 4f06 793f e484 7b3f
000002e0: cb80 773f ef39 7b3f c843 783f 2f5d 7c3f
000002f0: f1e1 793f 0998 773f 9c94 763f 5430 793f
00000300: d219 7a3f f0ad 7a3f 5590 763f 3717 7b3f
00000310: 0f6d 793f 2a90 7d3f 011a 783f f00a 7a3f
00000320: b95a 783f 82e0 7a3f 7886 7c3f 05cc 7a3f
00000330: 0e1f 783f 6f9e 7a3f 7abc 793f 8271 7b3f
00000340: 3b8b 733f bc11 783f 5879 7b3f c0ca 763f
00000350: 2f00 7a3f 363e 7b3f b467 7a3f f9b0 783f
00000360: b6d3 793f a881 743f 4bef 7b3f 8342 763f
00000370: 379a 7d3f ab12 7a3f 6bf3 753f fab5 7b3f
00000380: 8bc2 7d3f 334b 7c3f 90a8 753f faab 773f
00000390: 4361 7a3f 8106 7c3f 24ec 763f 7e95 7a3f
000003a0: 2476 793f c1c2 7b3f ecee 7d3f c08f 7b3f
000003b0: 8704 783f c8b5 793f 9b73 7a3f bb64 783f
000003c0: 74fb 7e3f 3587 783f 2b69 7c3f 5d54 7b3f
000003d0: b7cc 7a3f 6485 753f 26a6 7b3f 6880 7a3f
000003e0: 1623 763f a730 7c3f 199f 773f 41c3 763f
000003f0: 6950 793f d4ca 763f d70d 783f 47ed 7b3f
0.9704372 0.9696057 0.9685205 0.9904688 0.9760505 0.97932243 0.98256546 0.97478646
0.9602653 0.956881 0.9668017 0.98711437 0.97976017 0.98562413 0.9760834 0.97197586
0.96755415 0.98267823 0.98689604 0.9523745 0.98122257 0.97176474 0.96104044 0.98972434
0.9743767 0.97339195 0.9763573 0.97423667 0.9896575 0.97608894 0.9748838 0.98039675
0.9818931 0.9740756 0.96441317 0.9617599 0.9709271 0.96964467 0.9680498 0.9784516
0.9726604 0.979424 0.9646128 0.9884729 0.95321834 0.9722434 0.9785028 0.974246
0.9725853 0.9774352 0.97369254 0.98984796 0.96582806 0.9705134 0.97979313 0.96575564
0.9703578 0.9746794 0.9799 0.99150115 0.9857902 0.95218515 0.9693036 0.9828111
0.9677634 0.98404115 0.9755566 0.9683418 0.9804834 0.9914131 0.9640968 0.9870128
0.9802907 0.9703036 0.9813184 0.98892707 0.9737607 0.9864459 0.96580374 0.9599846
0.9796124 0.973304 0.9779563 0.98322946 0.9696859 0.9584675 0.95807153 0.9785684
0.9999103 0.9760499 0.9705628 0.9723505 0.9724041 0.97132546 0.9812109 0.96848947
0.9869748 0.9752163 0.98447675 0.98886794 0.96359724 0.97544694 0.97415125 0.9819219
0.9757364 0.9901143 0.9672699 0.97209525 0.9690275 0.98192203 0.96186846 0.9952887
0.9724987 0.98159033 0.9846926 0.9661007 0.9704397 0.97185636 0.9712665 0.9695488
0.97631943 0.96703726 0.9880498 0.95607144 0.9648254 0.9669642 0.9557183 0.98136586
0.9768112 0.97919047 0.9628063 0.9434751 0.9790157 0.9636534 0.98624516 0.97262275
0.9702158 0.99232966 0.97094107 0.97850126 0.97132635 0.9645138 0.9718948 0.97156274
0.9871679 0.9711484 0.98086214 0.9848942 0.9721344 0.9868699 0.9840365 0.9838479
0.98015577 0.96912694 0.9659626 0.97644264 0.9644762 0.9849706 0.9732071 0.96380603
0.9475003 0.97430813 0.970386 0.9733558 0.987802 0.9867224 0.98710793 0.9657307
0.97309905 0.9586166 0.9807213 0.9791814 0.9647541 0.9912474 0.9811808 0.98033524
0.992305 0.974785 0.9638864 0.95607895 0.9779612 0.9785294 0.9727525 0.9824965
0.966809 0.98135275 0.96978426 0.98579687 0.97610384 0.9671636 0.9632051 0.9733937
0.9769565 0.9792166 0.96313983 0.980823 0.97432035 0.990481 0.9691468 0.9767294
0.9701343 0.9799882 0.98642683 0.9796756 0.96922386 0.97898 0.9755322 0.98220074
0.95134324 0.9690206 0.9823203 0.9640312 0.9765653 0.981418 0.9781449 0.9714504
0.9758867 0.9551034 0.9841201 0.9619524 0.9906344 0.97684735 0.9607455 0.9832455
0.99124974 0.98552245 0.9596033 0.9674679 0.9780466 0.98447424 0.9645407 0.97884357
0.97445893 0.98344046 0.9919269 0.9826622 0.9688191 0.97543 0.9783265 0.970287
0.99602437 0.9708131 0.98597974 0.98175603 0.9796862 0.9590666 0.983004 0.9785218
0.96147287 0.9851174 0.9672714 0.96391684 0.9738832 0.9640324 0.9689612 0.9840893

bias f4 [400]
00000000: 45ae d7bd dfe2 ec3d 0845 aebd b831 533d
00000010: e9ed b93d cf89 a43d 24cf a9bd 509b a9bd
00000020: a248 cbbd 13ec b3bd 5195 aabd 6bd0 eb3d
00000030: fee2 d2bd c6a9 bc3d cea6 f9bd 190c 023e
00000040: 84d1 fd3d 3fea a3bd 6fa5 ad3d 693d d73d
00000050: 3ab9 af3d a683 9c3d 95b2 d9bd 518a abbd
00000060: d341 a4bd a671 a23d 03ab a0bd dd33 8bbd
00000070: 5da3 cd3d 69a2 a3bd da9c fb3d 9809 b7bd
00000080: c5d1 a1bd c654 c1bd 9410 a63d d580 b8bd
00000090: a359 dc3d b8e8 a73d 8381 a03d 4919 a1bd
000000a0: e2cb e0bd ed74 ba3d 553d ac3d 54cb f2bd
000000b0: fc5e c8bd ae41 e6bd 17db f33d bea5 6f3d
000000c0: df0c e13d 0e52 c0bd 5066 c83d 4cad c8bd
000000d0: be6e f93d da5b 9e3d 8106 9bbd 5e07 d03d
000000e0: a0ce e9bd f445 b6bd 8484 9fbd 69c7 b2bd
000000f0: ccfd e1bd df07 f53d 188a a7bd 742f febd
00000100: 520c e83d 0950 aabd 6553 aabd 0032 9cbd
00000110: 5fdb b43d dc36 b0bd 350e b33d a22e a5bd
00000120: 376c cebd 0b97 a0bd bb29 97bd e026 c23d
00000130: 1e73 d7bd 0e5a 9fbd 958f a43d 185c b33d
00000140: ca42 a43d 855f 96bd 4979 9bbd 2c90 cc3d
00000150: 2025 e63d 0f7d f73d c75b fb3d 4873 d6bd
00000160: a13b c6bd cc21 a33d 79f4 a8bd e113 a6bd
00000170: 18ea e9bd fef9 9cbd 260c a1bd a5eb f1bd
00000180: b387 d63d 1166 9e3d 79eb c6bd af50 a6bd
00000190: 51c3 d3bd ddf2 abbd d33e bf3d e93d dabd
000001a0: cca1 d4bd d8b0 bb3d 68d9 c03d 40ec d73d
000001b0: 0df8 01be 6387 dcbd 3425 c83d c467 aabd
000001c0: cd7b b03d 7da0 af3d d773 9fbd 7bc3 a03d
000001d0: 4b75 21bd 9e7d dabd bef5 b33d 1677 fd3d
000001e0: 8deb aebd b802 b43d e14e ae3d 9909 cabd
000001f0: 11bc a63d 2dd5 b1bd 5cf0 95bd 925a d83d
00000200: cca2 b3bd 4019 cc3d c57a fd3d cf4a ac3d
00000210: 8aad a3bd f1ec bcbd d9ed ae3d a6e5 aebd
00000220: 4f48 00be 51d7 cfbd a800 b93d c1a3 a0bd
00000230: 862d b9bd 1e3a cdbd fcf0 b13d de9e e0bd
00000240: eabe b93d b5e3 bcbd 8bd1 c1bd 609f c43d
00000250: a87d b73d 500d 9abd c14c b93d e15e b93d
00000260: 0feb a23d 65f3 a9bd 9bad b4bd c240 c63d
00000270: 269d ad3d b750 a93d 9128 99bd 2fbb bc3d
00000280: 1ffe ce3d f4d9 bebd aca0 ab3d 604e adbd
00000290: d7db a4bd d048 d9bd 0b8c a43d 22a4 c43d
000002a0: 6ea5 a4bd 89db b33d 6fbb 98bd 5381 b83d
000002b0: 99ff cf3d 0319 bd3d 21a9 b3bd 2713 a73d
000002c0: 077b d6bd b22f f13d 5556 813d bde7 d43d
000002d0: 6cc2 f3bd f353 bcbc 99f7 fd3d 726a a93d
000002e0: 3825 9d3d c21b acbd 6b17 b13d badb a93d
000002f0: bc91 a13d 2231 a33d 5d60 eabd 6433 debd
00000300: b9a3 c2bd 276e fabd 2dd6 cf3d 4a59 a93d
00000310: 87e0 a83d 22d0 b1bd cdad e43d a575 9d3d
00000320: a26f 9bbd 27ff 9dbd d996 a0bd d623 bc3d
00000330: 663f 90bd 2325 a53d 7148 c83d aaff c23d
00000340: 054d fb3d 9101 eabd add4 a2bd b362 a23d
00000350: ebd6 e53d aa4c c33d b60d 94bd c54d abbd
00000360: 64d8 a4bd f03d f7bd 6425 c6bd a74d a23d
00000370: 9f0b b13d 60b7 c1bd e7dc c63d 32ee a0bd
00000380: 9c27 e8bd 8b03 eebd 5ef6 ad3d e781 e9bd
00000390: 73ee d5bd c301 af3d 5553 bcbd 182e a63d
000003a0: 67e8 00be 7b9e ab3d cb93 b03d 7bbe a23d
000003b0: 4ad9 f93d 3613 a1bd 2e43 abbd 7db5 bdbd
000003c0: 8362 c4bd e007 96bd 532e acbd 7fa3 a73d
000003d0: 0496 e63d 87f3 c23d f7bc fcbd 63ce b3bd
000003e0: d0a2 de3d def9 c6bd 303f a23d 9cd2 c93d
000003f0: 1a66 bb3d 1df6 ca3d 5893 d33d 5225 b73d
-0.10531286 0.1156671 -0.085092604 0.051561087 0.09078581 0.080340974 -0.08291462 -0.08281577
-0.09925963 -0.08785262 -0.08329261 0.11514362 -0.102972016 0.09212069 -0.121900186 0.12699927
0.123934776 -0.08003663 0.084788196 0.1050976 0.08580251 0.076422974 -0.10629765 -0.08375991
-0.080203675 0.07931833 -0.07845118 -0.067970015 0.10040925 -0.07989962 0.122857764 -0.08937377
-0.079013385 -0.094399974 0.08108631 -0.09008948 0.10759284 0.081986845 0.078372024 -0.07866151
-0.109763876 0.09104333 0.08410136 -0.11855188 -0.09783742 -0.11242996 0.119070224 0.058507673
0.10988783 -0.09390651 0.097851396 -0.09798679 0.121793255 0.07732363 -0.075696 0.10157655
-0.11416364 -0.08900061 -0.07788947 -0.08729441 -0.11034736 0.11964392 -0.08180636 -0.12411395
0.11330475 -0.08316047 -0.083166875 -0.07626724 0.08830904 -0.086042136 0.08742944 -0.08065535
-0.10079234 -0.07841309 -0.07381006 0.09480071 -0.10520004 -0.077808484 0.080351986 0.087578
0.080205515 -0.07342438 -0.07591493 0.09988436 0.1123755 0.120844 0.122733645 -0.10471207
-0.09679342 0.079654306 -0.082497545 -0.0810926 -0.11421603 -0.0766487 -0.07863645 -0.11812524
0.10475101 0.07734311 -0.097128816 -0.08120858 -0.10339988 -0.08395932 0.09338155 -0.1065634
-0.10382423 0.0916459 0.09416467 0.10543108 -0.1269228 -0.107680105 0.09772721 -0.08320573
0.08617363 0.085755326 -0.077857666 0.07849785 -0.0394185 -0.10668491 0.08787106 0.123762295
-0.085410215 0.08789581 0.08511139 -0.09865112 0.081413396 -0.08683238 -0.073212355 0.1056415
-0.087712854 0.099657536 0.12376932 0.08412706 -0.07992084 -0.092248805 0.085414596 -0.08539896
-0.12527584 -0.1014849 0.09033328 -0.078437336 -0.09041886 -0.100208506 0.08688542 -0.109678015
0.09069617 -0.09223119 -0.09463795 0.09600711 0.08959514 -0.075220704 0.09047843 0.090513
0.0795499 -0.08298377 -0.08822175 0.0968032 0.08477239 0.08267348 -0.074784406 0.0921539
0.101070635 -0.09318915 0.08380255 -0.084622145 -0.080497436 -0.10609591 0.080345236 0.09601618
-0.08039366 0.087821074 -0.07457625 0.09009042 0.10156173 0.09233286 -0.08772493 0.0815795
-0.10472684 0.11776675 0.06315295 0.10395763 -0.119023174 -0.022989249 0.12400741 0.08272256
0.076731145 -0.08403732 0.08647045 0.08293863 0.07889125 0.07968356 -0.11444161 -0.10849646
-0.09503884 -0.12228041 0.10148273 0.08268984 0.0824595 -0.08682276 0.11165962 0.076884545
-0.07589652 -0.07714682 -0.07841272 0.09186523 -0.07043342 0.08063724 0.09779442 0.0952142
0.1227055 -0.1142608 -0.07950721 0.07928982 0.11222633 0.09536107 -0.07229178 -0.08364443
-0.08049086 -0.120723605 -0.096751004 0.07924967 0.08644795 -0.09458804 0.097101025 -0.07857932
-0.1133568 -0.116217695 0.084942564 -0.1140173 -0.10445871 0.08545258 -0.09195582 0.081142604
-0.12588654 0.08379837 0.08621939 0.079464875 0.12199648 -0.07864992 -0.08362423 -0.09263132
-0.09589102 -0.07325721 -0.08407273 0.08185481 0.11259082 0.095191054 -0.1234073 -0.087795995
0.10870898 -0.09715627 0.07922208 0.09854624 0.09150334 0.09910224 0.10330838 0.08942665

running_mean f4 [400]
00000000: 015e 843e c159 7f3e 6f1e 743e 9237 3c3e
00000010: 61b9 733e c613 a23e 7ec1 873e eba1 903e
00000020: 2830 473e 0da0 583e 11f4 4a3e dd10 4c3e
00000030: db03 7e3e 8af0 3b3e 5b61 a63e c174 803e
00000040: 050e 683e c8ae 693e fb07 623e e26a 5f3e
00000050: 2230 593e 6920 aa3e 61bc 493e 8e65 543e
00000060: 0821 9b3e ec70 593e 848e 6b3e 45f3 5c3e
00000070: 0415 443e 03b9 723e 1201 4c3e 5f3e 683e
00000080: 7c26 473e 2092 983e c7b1 813e d40c 4d3e
00000090: 2181 5c3e e1d2 5d3e a71f 6e3e 65c6 553e
000000a0: 4180 453e a408 5a3e 06a2 803e 0bab 6c3e
000000b0: ae49 7e3e ae2f 583e 9f1f 9e3e c9b9 893e
000000c0: 4d1e 7d3e da29 433e 3425 4f3e 4eb2 863e
000000d0: 2345 723e 9033 893e dfba 773e 38f5 4b3e
000000e0: ff7d 713e c5f6 533e 7385 b33e c2ec 583e
000000f0: 291b 6b3e 5d46 783e 1c17 5e3e b794 543e
00000100: dcc9 843e 96c8 6e3e cd82 6c3e 0db8 793e
00000110: ca92 6a3e c823 883e 4904 483e 94e0 693e
00000120: ae8a 853e 7b69 5f3e bcee 813e 39f3 683e
00000130: 118a 8f3e 18f5 813e 913f 893e 0cfd 3d3e
00000140: fd03 ba3e 96a7 7e3e 19ef 783e 4b9d 943e
00000150: 9ee3 593e a438 4d3e 1bb4 683e c607 863e
00000160: 5cc5 4e3e 6eb0 423e e45a 483e 4200 8a3e
00000170: 553b 3c3e c5ed 563e ed98 6e3e dac0 5c3e
00000180: 1cf0 5b3e a9bb 543e a273 883e 3e4e 713e
00000190: fa2e 5b3e 16b4 673e c321 793e d0b3 593e
000001a0: cc58 7a3e deae 903e 1100 643e fd3a 833e
000001b0: 94ff 803e 3a1e 6d3e a824 593e aa46 873e
000001c0: 4c15 663e be12 9e3e 6eca ab3e 5da2 533e
000001d0: 12ae 713e 7734 873e 018f 593e ba76 763e
000001e0: 04e9 4d3e c7a6 543e 002a 593e aa33 5f3e
000001f0: 6870 853e b243 6b3e 322b 3e3e 8ea9 963e
00000200: 8be4 5a3e 5a48 603e 0aee 673e d16e 563e
00000210: 54b7 4c3e aedd 643e 5be4 843e ba24 713e
00000220: ea33 733e 35e8 573e abac 553e ae03 733e
00000230: 8ca9 923e 0457 553e c422 7e3e 1bb4 343e
00000240: 60a7 8b3e 04a7 9d3e 3b83 913e 79ce 8e3e
00000250: 8093 623e 4281 523e 927e 393e 7ae1 6e3e
00000260: dc97 733e 4b83 693e 2873 6f3e 8d46 503e
00000270: 9f14 573e 21f7 8e3e 6db3 853e 02da 7f3e
00000280: 52a0 663e 7780 743e 76c9 843e 2ee9 453e
00000290: ec0c 823e ebeb 853e 98fd 703e 067e 643e
000002a0: 8eb3 5e3e 2d9e 553e 9a7c 763e 16d1 913e
000002b0: a362 423e 20eb 7f3e fca9 933e cdeb 803e
000002c0: 6360 8f3e fab9 6f3e 7ef8 863e 7c33 513e
000002d0: 63ac a03e e770 643e 083b 643e 9838 883e
000002e0: 32f0 5b3e 5e18 783e beb2 6e3e e288 6f3e
000002f0: e728 753e db80 503e d06e 773e d88e 7f3e
00000300: 51cf 853e 8290 7d3e 5626 593e 4ec8 7d3e
00000310: cb3a 3f3e 189a 563e fe07 543e 89d9 7b3e
00000320: 60a4 513e e980 5a3e 3c62 6c3e 70a9 6d3e
00000330: 0437 653e 4904 9f3e b46f 5f3e 2f8d 563e
00000340: eb66 4c3e d99d 463e 978d 863e eec3 7a3e
00000350: 6bfc 5c3e 29bd 793e 21de 513e b9b6 683e
00000360: cea4 703e 835e 803e 22e6 4a3e 3ada 653e
00000370: 7b58 6e3e 1a40 883e 7149 4e3e 26d7 4f3e
00000380: 014c 5c3e d742 893e d130 5c3e 8716 413e
00000390: 46d7 7a3e 8f34 523e 7a89 653e 6d06 5c3e
000003a0: ad3a 663e 96c4 6c3e e3ce 633e 8387 7c3e
000003b0: 99c9 823e d302 9f3e 64f8 9c3e c082 5e3e
000003c0: 8cfc 8b3e ba10 833e 78a7 7e3e fd3a 793e
000003d0: 0606 5d3e 65c4 713e a21c 7a3e 024e 4a3e
000003e0: 4f9f 623e 6a92 553e 3994 653e 6c15 883e
000003f0: 318a 833e 5d46 5b3e dcc3 513e 11bb 5b3e
0.2585297 0.24936582 0.23839734 0.18380573 0.23801185 0.3165571 0.2651481 0.28248534
0.19451964 0.21154805 0.19819666 0.19928308 0.24806158 0.18353477 0.3249615 0.25089076
0.22661598 0.2282058 0.22073357 0.21818116 0.21209767 0.33227852 0.19700767 0.20741865
0.30298638 0.21234483 0.23003584 0.21577175 0.19148642 0.23703389 0.19922283 0.22680043
0.19448274 0.29798985 0.25330946 0.20024425 0.21533634 0.21662475 0.23254262 0.20876463
0.19287206 0.21292359 0.25123614 0.23112123 0.24832794 0.21111938 0.308835 0.26899555
0.2471859 0.19058934 0.20229036 0.2630791 0.23659186 0.26797152 0.2419238 0.19917762
0.2358322 0.20699604 0.3506275 0.21184066 0.2295958 0.24245591 0.21688503 0.20759855
0.25935256 0.23318705 0.23096772 0.24386616 0.22907558 0.265898 0.19532885 0.22839576
0.26082367 0.21817581 0.25377452 0.22749032 0.28035024 0.25382304 0.2680631 0.18553561
0.36331168 0.24868616 0.24309959 0.29026255 0.21278235 0.20041138 0.22724955 0.26177806
0.20192474 0.19012615 0.19565922 0.26953322 0.18382008 0.2098914 0.23300524 0.21557942
0.21478313 0.20774712 0.2665072 0.23565003 0.21404639 0.22627291 0.24329285 0.2126
0.24447936 0.28258413 0.2226565 0.25630942 0.2519499 0.23156062 0.2120539 0.264211
0.22469062 0.30873674 0.3355288 0.20667405 0.23601559 0.26407215 0.21245958 0.24068728
0.2010842 0.20766746 0.21207428 0.21797052 0.26062322 0.22975042 0.18571165 0.29426235
0.21376245 0.219026 0.22649398 0.2094071 0.19991809 0.22350189 0.2595547 0.23549166
0.23750272 0.21084674 0.20866649 0.23731872 0.2864498 0.20833975 0.2481795 0.1764683
0.27276134 0.30791485 0.28420433 0.278919 0.2212658 0.2055712 0.18114689 0.233282
0.23788399 0.2280399 0.23383772 0.20339413 0.2100396 0.2792292 0.26113454 0.24985507
0.22522095 0.2387713 0.25934952 0.19327232 0.25400484 0.26156554 0.23534238 0.22313699
0.21748182 0.2086112 0.24070969 0.28479832 0.1898294 0.24992037 0.28840625 0.25179902
0.28003225 0.23410788 0.2636146 0.20429796 0.3138152 0.22308694 0.22288144 0.26605678
0.21478346 0.24228045 0.23310372 0.2339206 0.23941384 0.20361654 0.24163365 0.24956834
0.26134732 0.24762157 0.2120603 0.24783441 0.18674771 0.2095722 0.20706174 0.24594702
0.2047286 0.21338238 0.23084348 0.23209167 0.22384268 0.31057957 0.21819955 0.20952295
0.19961135 0.19396152 0.262799 0.24488804 0.21580665 0.24388565 0.20494892 0.22725953
0.23500368 0.25072107 0.19814351 0.22446528 0.2327594 0.26611406 0.20145203 0.20296916
0.21513368 0.26808807 0.21502997 0.1885625 0.24496183 0.20527862 0.22415724 0.21486826
0.2248332 0.23121867 0.2224689 0.24661069 0.25544432 0.31056842 0.30658257 0.21729565
0.27341115 0.255987 0.24868572 0.24338908 0.21584329 0.23610075 0.24424985 0.1975632
0.22131084 0.20856634 0.22419824 0.26578844 0.2569137 0.2141356 0.2048487 0.21458079

running_var f4 [400]
00000000: 7742 393e f2eb 1f3e 3e81 ed3d 9173 a13d
00000010: f09f 0c3e 46f8 403e aef7 1b3e 1d4b 473e
00000020: 5a8a c43d dfbd f13d b217 d53d ec4c c63d
00000030: 965a 0e3e 41c2 b33d a0bb 4d3e da80 123e
00000040: 2a3b 023e 9855 f63d c2ad e93d 57c1 fc3d
00000050: c0b3 c13d ddba 553e bc06 bf3d 572f eb3d
00000060: a81b 713e f6e3 c03d ee6d 0a3e 3001 e13d
00000070: 2826 d33d 796b 183e a30f d33d b111 d43d
00000080: 2911 b93d 3899 303e 4742 163e 701a d53d
00000090: 3ca0 e33d dc82 c83d 3049 ee3d c160 e63d
000000a0: 8a5a bd3d e898 d83d 2beb fe3d f045 093e
000000b0: 8001 083e 2a45 023e aad8 413e 4b00 133e
000000c0: 445d 083e 8270 c03d ee9c c33d 64f9 353e
000000d0: 8edf f73d d3f3 173e b1a1 0e3e 0ed2 bc3d
000000e0: 5757 fa3d a771 023e 1975 9a3e fa03 da3d
000000f0: 491d 003e 3f8a 0f3e ca4a e13d c2f4 d13d
00000100: 67f7 203e e2b0 f53d fdbf ec3d 24f0 0b3e
00000110: 3415 0a3e d7cd 313e f1c0 c83d 6b98 0a3e
00000120: 00bd 213e 5337 f33d 2df7 103e a3e0 093e
00000130: c76d 273e 98d8 293e 360b 0e3e bce9 be3d
00000140: 3591 943e d076 e93d 40c0 023e bdc0 4b3e
00000150: 4880 f13d a553 ba3d cef4 ea3d 3653 163e
00000160: 9b08 f93d 82ea e73d 8c76 d03d a01f 463e
00000170: 1f55 9f3d 52b6 e43d c515 073e 6373 ea3d
00000180: 2c4d f63d ac5d ce3d bdde 2f3e c5be 063e
00000190: 694e f03d a905 ea3d 8fae 043e 83fe c33d
000001a0: 314e 253e 6d4c 373e 4e57 e93d 31de 123e
000001b0: ab45 173e f7a4 063e d4b5 d43d ca93 2f3e
000001c0: cf55 073e 69a6 563e 0e7f 7f3e fb2e dd3d
000001d0: 8f59 153e ef6a 163e 1992 003e 8f7e 033e
000001e0: c799 c43d 03c1 d83d d76c c53d 8dbf ff3d
000001f0: 9021 283e 79c9 e53d 4bac a53d f68d 3b3e
00000200: 81ab e03d 8cfd d43d 492f f33d 11c7 d33d
00000210: fe72 df3d 1c2f ce3d 56fc 143e 9baf 193e
00000220: 8508 0d3e a5fb e43d a618 cd3d 37dc 063e
00000230: 221e 363e 2fff da3d 8168 073e 8c0f a23d
00000240: b909 153e 352e 5f3e c64c 3a3e 1a4a 4b3e
00000250: 885f d43d d05b cb3d 3f8b ce3d c2d7 f43d
00000260: 6ef3 1b3e 3916 fb3d a569 e23d 0832 d03d
00000270: eb5d cb3d 562b 563e 8604 123e aeb6 1c3e
00000280: 3e02 ef3d faee 143e e9b9 233e 1d21 bf3d
00000290: aa5d 173e 54f7 363e b7a4 083e 0f06 e73d
000002a0: ddbe e63d be36 c33d 5604 133e 7240 3a3e
000002b0: adc2 c43d 33ab 333e 2984 353e d3cf 103e
000002c0: 0935 483e 0e23 0f3e 2747 223e 73d4 c73d
000002d0: cf54 6d3e 3785 f63d 878c f43d 6a03 6c3e
000002e0: bbd1 d83d 92ae 063e 2358 fc3d 724b 0e3e
000002f0: 4a60 ff3d 69c4 d33d a180 163e ced6 233e
00000300: 604b 123e 20a1 253e 059a bf3d 32fe 133e
00000310: d768 ad3d 16d4 e33d 2218 dc3d 8765 023e
00000320: 99e9 db3d 1797 d03d cb06 143e 4e8f fd3d
00000330: b9bd e63d af9a 4a3e 5b6d e63d 9e89 dd3d
00000340: 48ed b73d d18b c43d c4da 273e 4bc8 e53d
00000350: 0c04 fd3d d685 2f3e aed4 d33d 6e1f e63d
00000360: 074c 0b3e d504 1c3e 9c20 af3d 879d e33d
00000370: 77f1 fa3d 78d7 443e 0b2b c93d 8450 ab3d
00000380: eab1 e53d 8ae3 243e 88ea 053e b7bc b53d
00000390: 74de 0c3e 4902 dd3d b39f f93d 4a3c ee3d
000003a0: ec4c e43d b9f6 1c3e 734e f23d c7dc 1e3e
000003b0: 9d28 2f3e edcc 623e 0e76 353e fb55 d63d
000003c0: fa91 463e 3fa9 083e 7581 223e 87ca 123e
000003d0: 2ac3 013e 5386 e83d 4da9 053e 9ae9 e53d
000003e0: 5c07 cc3d 8160 ed3d 6e6c da3d db00 1e3e
000003f0: eb35 263e 4427 ed3d 43cd c03d 313e fc3d
0.1809176 0.1561735 0.115969166 0.07883371 0.13732886 0.18844709 0.15231201 0.19462247
0.09596701 0.11803793 0.1040491 0.096826404 0.13901743 0.08777285 0.20091105 0.14306965
0.12717882 0.120280445 0.11410095 0.12341564 0.09458113 0.20872064 0.09327456 0.11483639
0.23545706 0.0941848 0.13518497 0.109865546 0.10310012 0.14884748 0.10305717 0.10354937
0.09036476 0.17245948 0.1467372 0.10405433 0.11114547 0.097905844 0.11635053 0.11248923
0.092457846 0.105760396 0.124471985 0.13405585 0.13281822 0.12721696 0.18930307 0.1435558
0.13316828 0.09396459 0.09551416 0.17770916 0.121031865 0.14839105 0.13928868 0.09219752
0.1222369 0.12738667 0.30167463 0.1064529 0.12511171 0.1401758 0.11000593 0.10251762
0.15719377 0.11996628 0.11560056 0.13665825 0.13484651 0.17363678 0.09802426 0.13534705
0.15794754 0.11875787 0.1415679 0.13464598 0.1635047 0.1658653 0.13871464 0.09321925
0.29017034 0.11399615 0.1276865 0.19897743 0.11792046 0.09097985 0.11472474 0.1468018
0.121598445 0.11324026 0.10178861 0.19348001 0.077799074 0.11167587 0.13191898 0.114477895
0.12026438 0.1007646 0.17174812 0.1315871 0.117337056 0.11426861 0.12957214 0.09570029
0.16143109 0.17900248 0.11393605 0.14342572 0.1477267 0.13148867 0.103862435 0.17146221
0.13216327 0.20961918 0.24950811 0.107999764 0.14584945 0.1468923 0.12555732 0.12841247
0.09599643 0.10583689 0.096399 0.12487707 0.16419053 0.112200685 0.08089503 0.18315873
0.10970212 0.10399923 0.11874253 0.10340703 0.10910605 0.10067579 0.14549384 0.15008394
0.13772781 0.1118081 0.10014467 0.13169943 0.17784932 0.10693204 0.13223459 0.079131216
0.1455449 0.2179497 0.18193349 0.19852486 0.10369784 0.09929621 0.10085153 0.11955215
0.1522958 0.12260098 0.11055306 0.10165793 0.09930023 0.20914969 0.14259538 0.15304062
0.116703495 0.14544287 0.15988888 0.09332488 0.14781824 0.17867786 0.13344084 0.112804525
0.11266873 0.095319256 0.14357123 0.18188646 0.09607444 0.17545776 0.17726196 0.14141779
0.19551481 0.13978216 0.15847455 0.09757318 0.23176883 0.120371275 0.11940866 0.23048177
0.10586878 0.13152531 0.12321498 0.13895968 0.124695376 0.10340197 0.14697506 0.1599991
0.14286566 0.16174746 0.09355549 0.14452437 0.08467262 0.111244366 0.107467905 0.12734042
0.107379146 0.10185068 0.14455716 0.12380849 0.112666555 0.1978557 0.11251327 0.10817264
0.08980805 0.0959698 0.16392046 0.112198435 0.123542875 0.17140898 0.103433 0.112364635
0.13603221 0.15236218 0.085511416 0.1111403 0.12253087 0.1922282 0.09822663 0.083649665
0.11215575 0.16102424 0.13077748 0.08873885 0.13756734 0.107914515 0.12188663 0.11632593
0.11147484 0.15328492 0.11831369 0.15513907 0.17105336 0.22148485 0.17720816 0.10465618
0.19391623 0.13345812 0.15869696 0.1433507 0.12672105 0.11353745 0.13052864 0.112261966
0.09962341 0.11590672 0.106652126 0.15430014 0.16231506 0.11579755 0.094141506 0.123165496

weight f4 [2, 400]
00000000: b7fd 65bc 0c0d 7f3d 07aa 31bd dcd4 5dbc
00000010: 2f34 873d 14b2 903d 7e39 f4bc 9597 e7bc
00000020: 0445 0bbd 6141 68bd 595a c1bd c787 003d
00000030: 3907 d9bb dc18 a73d 5bb7 5fbd b5d1 243d
00000040: aaf9 443d a9cc acbd c081 a33d 1741 693d
00000050: 13ea a53d cb46 703d 5389 68bd 1eb5 48bd
00000060: c56e 1abd 2e75 fd3c 7073 3bbd 43f2 92bd
00000070: 2fe1 113d 441d 30bd 5f52 273d 0d2e 67bd
00000080: b92a aabd 3f67 82bd b175 8c3d da5e 83bd
00000090: dae9 8c3d 58a0 3e3d 9001 3e3d 450d 9bbd
000000a0: d052 2bbc 1f60 543d 8d55 593d 3fab 38bd
000000b0: 751b 44bd e690 83bd 8453 013d 74b7 e83c
000000c0: d0dd 593d b2f4 c6bd bd9b a43d 1f29 9bbc
000000d0: 62cd 923d c02a 8d3d 5bae 68bd 23af e23c
000000e0: 0bf1 91bd ac77 b0bd 5ee9 9abd 4ba6 1bbd
000000f0: 332f 84bd b2f3 a33d 5e40 8abd 77de dabd
00000100: 970b 9e3d ea5a 58bc 8694 f5bc b195 8ebd
00000110: c5a3 373d ebe2 81bd bbb7 8d3d 854f 57bd
00000120: 0abe 52bd bc8c 7bbd 0f1c 78bd 8eb4 b33c
00000130: a5c9 92bd 8e3a 5dbd 95eb 933d fab2 7c3d
00000140: fb34 993d 2b03 8abd 8cdd 57bd 2bc8 8d3d
00000150: be74 163c 8fe0 903d fd19 853d 53fa bdbc
00000160: 07c5 49bc be4a 7a3d b272 35bd b133 39bd
00000170: f84a b8bd a55b 5abd 9cf0 bdbc 66bf 06bd
00000180: 0e2d b43d fc3b ab3c 7f4d 9abd fbaf 90bd
00000190: 69e6 27bd 29f7 83bd 4650 993d bed0 b7bd
000001a0: 53e6 64bd e883 f83c 9df3 8d3d 3569 473d
000001b0: f7e2 80bd c760 01bb f7d3 333b 04c7 d0bc
000001c0: 72f1 843d af4b 513d f137 0abd 1b16 893d
000001d0: 9e61 ac3c 18c5 a7bc 3734 7d3d ea75 e93d
000001e0: 2e71 83bd 2ee6 633d d9d1 673d 9cbd 32bd
000001f0: 2e06 a83d bfaa 9ebc 4268 9fbd 05a9 353d
00000200: 4ff4 91bd 16b0 663d 068e 473d b6a4 a43d
00000210: 96fc 9ebd 9297 11bd 32be 363d 10ea 84bd
00000220: 5678 c9bd e1d6 45bd dc56 663d 0aad 23bd
00000230: 0d7f 11bd dcee 9d39 ec5b 813d 5645 30bd
00000240: 3b05 5b3d 118d 81bd cfb9 60bd e259 4a3c
00000250: 1581 053d 3737 73bd 0167 4d3d da95 ee3b
00000260: 3ddb 4e3d ee05 96bd d356 61bd 7730 0f3d
00000270: d944 973d c04a 573d 2cde 99bd e61a 8c3c
00000280: 00b2 103d 1a37 51bd 3db7 2d3d ead8 72bd
00000290: 28e0 e2bc e8cb c4bc edfa 8d3d e4c8 923d
000002a0: 73cc 85bd f828 c73d 50d7 85bd 56a9 b13d
000002b0: 4603 043d 1295 883d 515c 45bd d454 693d
000002c0: e693 38bd 1a9d a93d 91fe c5bc 1a6e 743d
000002d0: 4301 93bd 7711 cd3b 3a62 b03d 485c ea3c
000002e0: d317 b8bc 9737 3fbd 0359 7c3d bddb 643d
000002f0: f60a 973d bc66 453c 0eac 0dbd ba8d cebd
00000300: de68 98bc eebc 9fbd 8fcb 9f3d d79e 863d
00000310: 38aa bcbc 96d1 78bd 283c 2339 14d9 893d
00000320: 3192 e4bc 09bf 8dbd 6b95 57bd ec41 903d
00000330: 8a28 80bd c6e2 953d 85df d73d e57e 013d
00000340: c3d0 a43d cefd dabc b805 3ebd 6dcc 613d
00000350: 3ad1 8b3d 03cc 803d 3f58 d3bc 541e 81bd
00000360: 84db 9cbd 2dab c2bd 547c 99bd 73ae 923d
00000370: 3bac 153d 800f 9bbd 4a36 473d 5e0a 08bc
00000380: a2b1 68bd 3cc1 26bd ffdd 803d 66cb 38bd
00000390: 57c3 82bd da2f 853d 035d bbbd 67d6 a73d
000003a0: f40a a3bd f77b a73d 4f9f 413d 9f4d 823d
000003b0: 9aa6 f73c 7e3f 7fbd 096e 6dbd a605 8dbd
000003c0: 18bb 50bd a829 84bd 4c80 91bd e8e0 723d
000003d0: 0b1d b13c 50a5 5d3d 6e35 bcbd 814e c4bd
000003e0: 701f b33d e28b 4dbd 9ee2 5c3d d772 013d
000003f0: 9fde a73d 95b3 823d 30be 9d3d 96d2 7b3c
-0.014037541 0.0622683 -0.04337504 -0.013539519 0.0660175 0.07065216 -0.02981257 -0.028270522
-0.034001365 -0.056702975 -0.094410606 0.031379487 -0.0066231755 0.081590384 -0.05461822 0.040239055
0.04808966 -0.08437473 0.07983732 0.05694684 0.08101287 0.058661263 -0.056771588 -0.04900085
-0.037703294 0.030939665 -0.045764387 -0.07175114 0.035615142 -0.04299666 0.04085004 -0.0564404
-0.0830893 -0.06367349 0.06858385 -0.06414576 0.06880541 0.046539634 0.04638821 -0.0757089
-0.010456756 0.05184948 0.053060103 -0.045085188 -0.047877748 -0.064241216 0.031573787 0.02840779
0.053190053 -0.09714641 0.08037517 -0.018940507 0.0716808 0.068929195 -0.056806903 0.027671402
-0.071260534 -0.086165756 -0.075640425 -0.038000386 -0.06454315 0.080054656 -0.06750558 -0.10686963
0.07717054 -0.013205269 -0.029978048 -0.06962145 0.044833917 -0.06342109 0.069198094 -0.05256607
-0.051450767 -0.06141351 -0.060573634 0.021936681 -0.07167367 -0.05401092 0.07222668 0.061694123
0.07480808 -0.067388855 -0.052701518 0.06922945 0.009183107 0.07074081 0.064990975 -0.023190653
-0.012315041 0.061106436 -0.044298835 -0.045215312 -0.08998674 -0.053310055 -0.02318602 -0.032897376
0.08797656 0.020902626 -0.075343125 -0.070648156 -0.04099122 -0.064436264 0.07486014 -0.08975361
-0.055883717 0.030336335 0.06931231 0.048684318 -0.0629329 -0.0019741522 0.0027439573 -0.025485523
0.064913645 0.051097568 -0.033744756 0.066936694 0.021042641 -0.020479724 0.061817374 0.113994434
-0.06418072 0.05563944 0.05659661 -0.043637857 0.08204304 -0.019368527 -0.077835575 0.044350643
-0.07126676 0.056320272 0.04871943 0.080392286 -0.07763021 -0.03554494 0.044614978 -0.064899564
-0.098374054 -0.048300628 0.05623518 -0.039959945 -0.035521556 0.00030123338 0.06316361 -0.043034874
0.053471785 -0.063257344 -0.0548647 0.012350531 0.032593805 -0.05937883 0.05014706 0.0072810473
0.05050205 -0.0732535 -0.055014443 0.03495833 0.073861785 0.05256152 -0.07513079 0.01710267
0.035326004 -0.05107794 0.042411078 -0.059288897 -0.027694777 -0.024023011 0.06932626 0.07167223
-0.06533136 0.09724611 -0.06535208 0.086748764 0.032229684 0.06669058 -0.048183743 0.056965664
-0.045062922 0.08281918 -0.024169238 0.059675314 -0.07177975 0.0062581855 0.08612485 0.028608456
-0.022472298 -0.046683874 0.061608326 0.05587362 0.073751375 0.01204842 -0.034587912 -0.10085626
-0.018604692 -0.07799707 0.078024976 0.06573265 -0.023030385 -0.06074675 0.00015567301 0.067308575
-0.02790174 -0.06921203 -0.05263273 0.070438236 -0.06257732 0.07318644 0.1054068 0.031615157
0.08047631 -0.026732352 -0.046392173 0.055126596 0.06827016 0.06288912 -0.025798915 -0.06304613
-0.07659057 -0.095053054 -0.07494417 0.0716218 0.036541205 -0.07571316 0.04863576 -0.008303253
-0.05681003 -0.040711626 0.062923424 -0.04511585 -0.06384914 0.065032676 -0.091486 0.08195191
-0.079610735 0.08177941 0.04727107 0.06362461 0.030230809 -0.06231641 -0.057966266 -0.06885843
-0.050959677 -0.06453258 -0.07104549 0.05929652 0.021620294 0.054112732 -0.091898784 -0.09585286
0.087462306 -0.05018223 0.053927056 0.03160366 0.081967585 0.06381909 0.07702291 0.015370032

bias f4 [2]
00000000: f903 a03d 939c e9bd
0.07813258 -0.11406817
